10_neural_network_design/cifar_net.pth (torch, 251604 bytes, 10 tensors)

conv1.weight f4 [6, 3, 5, 5]
0	0x3e2075fd	0.15670009
1	0x3c8df1d4	0.017327227
2	0x3e0cca8f	0.13749145
3	0x3ec87e96	0.39159077
4	0x3e972c46	0.29525965
5	0x3d8cc187	0.0687285
6	0x3e39392d	0.18088217
7	0x3dac02fd	0.083990075
8	0x3e932fd3	0.28747424
9	0x3ea71991	0.32636693
10	0x3c1286be	0.008943258
11	0x3e238c5a	0.15971509
12	0x3df994f3	0.12186613
13	0xbd7f6b15	-0.06235798
14	0x3e4e57f8	0.20150745
15	0xbdfb7440	-0.12278032
16	0x3e73bcdc	0.23802513
17	0x3e57b7fa	0.21066275
18	0xbe3a6338	-0.18201911
19	0x3d18c6c6	0.03729894
20	0xbe28ea31	-0.16495587
21	0x3e040176	0.12891182
22	0x3e235f28	0.15954268
23	0xbe42dcc9	-0.19029535
24	0xbd785d61	-0.060635928
25	0xbe89305b	-0.26794705
26	0xbe69e577	-0.2284144
27	0xbe71d64e	-0.23616907
28	0xbe5e3480	-0.21699715
29	0xbdf2be01	-0.118526466
30	0xbded5c48	-0.11589867
31	0x3ca81029	0.020515518
32	0xbe7d0822	-0.24710134
33	0xbedb509e	-0.42834944
34	0xbe68f69b	-0.22750323
35	0xbe1f802e	-0.1557624
36	0x3e49058f	0.19631027
37	0xbcdd5d9e	-0.02702218
38	0xbee029cc	-0.43781888
39	0xbeb6717a	-0.3563345
40	0xbdac4f22	-0.08413531
41	0x3e81965a	0.25310022
42	0xbcf09465	-0.029367635
43	0xbef96b70	-0.4871478
44	0xbe974233	-0.29542693
45	0x3a6a4cc9	0.00089378335
46	0x3e45fcf0	0.19334769
47	0x3dc5019a	0.09619446
48	0xbea9959f	-0.33121964
49	0xbe5e3ff4	-0.21704084
50	0xbc0bf634	-0.008542586
51	0xbd5b068b	-0.053473037
52	0xbc1c9249	-0.0095563615
53	0xbd6f94a7	-0.058491375
54	0x3d924bbd	0.07143352
55	0x3b9652ee	0.0045875227
56	0x3e3781db	0.1792063
57	0xbd66fdc1	-0.056394342
58	0xbe4ca486	-0.19984636
59	0xbe1accda	-0.15117207
60	0x3e844810	0.2583623
61	0x3ea05e3a	0.3132189
62	0x3d565472	0.052326627
63	0xbebef01b	-0.3729256
64	0xbe2a576d	-0.16634913
65	0x3e58b27e	0.2116184
66	0x3e9cf25d	0.30653659
67	0x3e8d637f	0.27614972
68	0xbe19ced7	-0.1502031
69	0xbe7c6555	-0.2464803
70	0x3e629749	0.22128023
71	0x3e8ab031	0.27087548
72	0x3e92d215	0.28675905
73	0xbd6cddc6	-0.057828687
74	0xbda94d46	-0.08266692
75	0x3d2b8590	0.041875422
76	0xbe5dd69a	-0.21663895
77	0x3e306d5d	0.17229219
78	0xbd7dcfca	-0.06196574
79	0x3d9dbd32	0.07702102
80	0x3d0329a7	0.032022145
81	0xbefea10f	-0.49732253
82	0x3e244c2f	0.16044687
83	0x3cfad16f	0.030617444
84	0xbe22364e	-0.15841028
85	0xbbb31b46	-0.0054658977
86	0xbed82c27	-0.42221186
87	0xbded944b	-0.1160055
88	0x3d9f3524	0.07773808
89	0x3d951831	0.07280005
90	0x3e4211e0	0.18952131
91	0xbe9bca75	-0.304279
92	0xbe8a23ed	-0.26980534
93	0x3e2d4e08	0.16924298
94	0x3e10fc8d	0.1415884
95	0x3de80d4d	0.11330662
96	0xbea5046a	-0.3222993
97	0xbe9415c6	-0.28922862
98	0x3caa4604	0.02078534
99	0x3e3d35a4	0.18477494
100	0x3db814d8	0.08988351
101	0xbe5b5317	-0.21418415
102	0x3e5d0bfd	0.21586604
103	0x3d4670d5	0.04844745
104	0xbd107232	-0.035265155
105	0x3d532554	0.05154927
106	0xbed04049	-0.40674046
107	0x3e5acf16	0.2136806
108	0x3e8114fa	0.25211316
109	0xbcb64541	-0.02224982
110	0x3e6e64db	0.23280661
111	0xbec5f53f	-0.3866367
112	0x3d85c757	0.06532162
113	0x3e205d84	0.15660673
114	0x3e10fa54	0.14157993
115	0x3eb2f5c5	0.34953132
116	0xbe85a62c	-0.26103342
117	0xbe195df6	-0.1497725
118	0x3e8f1f03	0.27953348
119	0x3eaa2b31	0.33236077
120	0x3e892425	0.2678539
121	0xbdabc718	-0.083875835
122	0xbe7de1a1	-0.24793102
123	0x3da39ef0	0.07989299
124	0x3e887623	0.2665263
125	0x3d78c90a	0.0607386
126	0xbe4f4518	-0.20241201
127	0xbc94d7ea	-0.018169362
128	0xbd390466	-0.04517021
129	0xbd8111f4	-0.063022524
130	0x3c2b7d62	0.010466905
131	0xbeb20896	-0.34772176
132	0x3e1514f6	0.14558777
133	0x3e293802	0.16525272
134	0xbe2b13d9	-0.1670679
135	0x3c0dafc5	0.008647864
136	0xbeba82cb	-0.36427912
137	0xbcbaf6cb	-0.022822758
138	0x3e076034	0.13220292
139	0x3d85f905	0.06541637
140	0x3e834a00	0.25642395
141	0xbe536dde	-0.2064738
142	0xbe984fa4	-0.2974826
143	0x3e51af2d	0.2047698
144	0x3c814fe6	0.015785169
145	0xbc0bf8d6	-0.008543214
146	0xbe8f474f	-0.27984092
147	0xbe81dded	-0.25364628
148	0x3c5e3ea4	0.013564739
149	0x3df02047	0.117249064
150	0x3e5a2237	0.21302114
151	0x3ac0b0a6	0.0014701083
152	0xbdb4f744	-0.08836225
153	0xbdbbb7ab	-0.09165891
154	0x3c01ccb6	0.007922342
155	0x3e5afe4b	0.21386068
156	0x3e7fdd2f	0.24986719
157	0x3ee79698	0.4523208
158	0x3e780de1	0.24224044
159	0x3e7e3cc5	0.24827869
160	0x3d9b5193	0.075839184
161	0x3e9f462a	0.31108218
162	0x3f0f17c4	0.5589564
163	0x3ec5262d	0.38505688
164	0x3d0a7fa7	0.033813145
165	0xbe12756f	-0.1430261
166	0xbece51f7	-0.4029691
167	0xbe970072	-0.29492527
168	0xbf0d9992	-0.55312455
169	0xbec7b59c	-0.39005744
170	0xbe809bec	-0.2511896
171	0xbee7f398	-0.45303035
172	0xbea69c31	-0.3254104
173	0xbe26ee37	-0.16301809
174	0xbe0c43ea	-0.13697782
175	0x3d23a22e	0.03994959
176	0xbe62ed6d	-0.22160883
177	0xbe88cec0	-0.26720238
178	0xbe9fa14f	-0.31177756
179	0xbe0f7641	-0.14009954
180	0xbd9f37a0	-0.077742815
181	0x3db4c45e	0.088265166
182	0x3e9be03d	0.30444518
183	0x3e3187e0	0.17336988
184	0x3e2ad8e7	0.16684304
185	0x3bef5b3b	0.0073045767
186	0x3e548784	0.2075482
187	0x3f085b6a	0.53264487
188	0x3ecd9009	0.40148953
189	0x3e3d5f5b	0.18493406
190	0xbd51fe63	-0.051267993
191	0xbe0dea04	-0.13858801
192	0xbe85895f	-0.26081368
193	0xbefddaa4	-0.49580872
194	0xbe877602	-0.2645722
195	0xbc537c63	-0.012908074
196	0xbe1fb880	-0.15597725
197	0xbe58f68b	-0.21187799
198	0x3cab98e7	0.020946933
199	0xbcea4678	-0.028598055
200	0xbe1ce610	-0.15322137
201	0xbeb2ad54	-0.34897864
202	0xbe5327e4	-0.20620686
203	0xbe8d01a6	-0.2754032
204	0xbda9b965	-0.08287314
205	0xbe18bc4d	-0.14915581
206	0xbbdca643	-0.006733687
207	0x3d32b1f4	0.04362674
208	0xbd4c4ba7	-0.049876835
209	0x3e16da90	0.14731812
210	0x3d35e511	0.044407908
211	0x3e854a35	0.26033178
212	0x3eb9164b	0.3614982
213	0x3ea4b4a0	0.32169056
214	0x3eb5cefc	0.3550948
215	0x3d84bd50	0.06481421
216	0xbd91af93	-0.07113566
217	0xbe2c4742	-0.16824058
218	0xbe74add0	-0.23894429
219	0xbdc10265	-0.09424285
220	0x3e844a3d	0.2583789
221	0x3e016e32	0.12639692
222	0x3e2962b3	0.16541557
223	0x3db51a6a	0.08842929
224	0x3e8e704d	0.27820054
225	0x3e0bde86	0.13659105
226	0x3de463e4	0.11151865
227	0xbb6a0b1a	-0.0035712183
228	0x3d8675c3	0.0656543
229	0xbd7ade83	-0.06124736
230	0xbe6a9ef1	-0.22912194
231	0xbe6dd29e	-0.23224875
232	0xbe2bb110	-0.16766763
233	0xbea05c1c	-0.31320274
234	0xbe8a0d55	-0.26963297
235	0xbe90dc28	-0.28292966
236	0xbe4f40aa	-0.20239511
237	0xbe6429f8	-0.22281635
238	0xbe3de798	-0.18545377
239	0xbe852020	-0.26001072
240	0xbdad351e	-0.08457397
241	0xbdfcb96a	-0.123400524
242	0xbe4e1286	-0.20124254
243	0xbdc67b6b	-0.09691509
244	0xbe6241eb	-0.22095458
245	0xbe0b5426	-0.13606319
246	0x3d408fe3	0.04701222
247	0xbd4e26f8	-0.050330132
248	0x3dbb2e4c	0.0913969
249	0xbd1b1536	-0.037862025
250	0x3e0f1ab8	0.13975036
251	0x3d99baaf	0.0750631
252	0xbc4d8dae	-0.012545986
253	0xbd2d201c	-0.04226695
254	0xbca36f8e	-0.019950654
255	0xbdfb1280	-0.12259388

conv1.bias f4 [6]
0	0xbe414e57	-0.1887754
1	0xbd3b1f60	-0.04568422
2	0xbec8f58c	-0.39249837
3	0x3e7e9a57	0.24863563
4	0xbef975c9	-0.48722675
5	0x3deff175	0.11715976

conv2.weight f4 [16, 6, 5, 5]
0	0x3dae8d7c	0.0852308
1	0xbd7679f6	-0.060174905
2	0x3e528bb6	0.20561108
3	0xbd611cc2	-0.054959066
4	0x3e3afa9a	0.1825966
5	0x3e1aa04f	0.15100215
6	0xbe661573	-0.2246912
7	0x3e3495ad	0.17635222
8	0xbcdc7c4d	-0.02691474
9	0x3d90a5e2	0.0706289
10	0x3d7f65d3	0.062352967
11	0xbe0e150e	-0.13875219
12	0x3dc2984b	0.09501704
13	0xbca779a6	-0.020443749
14	0xb9a73afa	-0.00031896663
15	0x3c3e8c95	0.011630197
16	0xbdb8dfa0	-0.09027028
17	0xbb1f86f1	-0.0024341906
18	0xbcf8aea1	-0.030356707
19	0xbd87af63	-0.06625249
20	0xbe0c4705	-0.13698967
21	0xbe04b003	-0.12957768
22	0xbe2e347c	-0.17012209
23	0xbded1e10	-0.115779996
24	0xbdea4212	-0.11438383
25	0xbe0891fa	-0.13336936
26	0x3c23cd3e	0.009997664
27	0xbdd75f7f	-0.10516261
28	0x3d2b0aae	0.04175823
29	0xbc8d844f	-0.017275004
30	0xbe570377	-0.20997415
31	0x3e2dae5d	0.16961046
32	0xbe830c20	-0.25595188
33	0x3e168b79	0.14701642
34	0x3d0779c9	0.033075128
35	0xbdf0140b	-0.11722573
36	0x3df9ad22	0.121912256
37	0xbe00eac9	-0.12589563
38	0x3dbe554e	0.09293614
39	0x3dcca5ff	0.09992599
40	0xbdaaf299	-0.08347053
41	0x3d3d74f5	0.046254117
42	0xbe350148	-0.1767627
43	0x3a9e99fd	0.0012100335
44	0x3e21fb3c	0.15818495
45	0x3df81938	0.12114185
46	0xbdae24d0	-0.08503115
47	0xbe02f60f	-0.12789176
48	0x3d98ba4b	0.074574076
49	0x3dc26618	0.09492129
50	0x3d9b2c9b	0.07576867
51	0x3e2a9aa2	0.1666055
52	0x3b1c2112	0.0023823422
53	0x3b93c914	0.0045100544
54	0xbc16df85	-0.009208565
55	0xbd4d506f	-0.050125536
56	0xbbb30d19	-0.005464208
57	0x3be380d1	0.0069428463
58	0xbe35450a	-0.17702118
59	0x3b11d8f1	0.0022254551
60	0xbd2eba11	-0.042657916
61	0x3ce2e24c	0.027695797
62	0xbd50b5a2	-0.05095447
63	0xbd142e7b	-0.03617714
64	0x3dfead29	0.124353714
65	0xbd008356	-0.03137525
66	0xbd24ec71	-0.04026455
67	0x3d1c769f	0.038199063
68	0xbe175f99	-0.14782561
69	0xbdfa1560	-0.12211108
70	0x3bc81ea6	0.006107169
71	0x3d760233	0.06006069
72	0xbda8d76f	-0.08244216
73	0x3d19a48a	0.037510432
74	0x3bf787a5	0.007554012
75	0xbdda6e36	-0.10665552
76	0xbdf7feb6	-0.12109129
77	0xbe102e1b	-0.14080088
78	0xbe637b60	-0.22215033
79	0xbd5814ce	-0.052754216
80	0x3d990fc6	0.07473712
81	0xbc7fddba	-0.015616829
82	0xbc087b08	-0.008330114
83	0xbddf97d4	-0.10917631
84	0xbd9f2899	-0.07771415
85	0x3d99bbf6	0.07506554
86	0x3c24c954	0.010057766
87	0xbb39e293	-0.0028363809
88	0xbd8146fc	-0.06312367
89	0xbe25ee77	-0.16204248
90	0x3e01ce11	0.12676264
91	0x3dc3aad2	0.09554066
92	0xbd1500c1	-0.036377672
93	0xbd8040ca	-0.062623575
94	0xbe032b95	-0.12809594
95	0xbd48fda0	-0.04907
96	0xbdc90dc0	-0.09817076
97	0xbd88d6e4	-0.06681612
98	0xbdc80895	-0.09767262
99	0xbe7fadf1	-0.24968697
100	0x3e7307d4	0.23733455
101	0x3e5b7956	0.21433005
102	0xbd5e4b68	-0.05427113
103	0xbdd12c73	-0.10213556
104	0xbd7cfab1	-0.061762515
105	0x3d3d42c8	0.046206266
106	0x3c4b3aaa	0.012404123
107	0xbe38879e	-0.18020484
108	0xbdf1301a	-0.11776753
109	0xbcd489d9	-0.025944637
110	0x3cf2994d	0.029614115
111	0xbcf48e0c	-0.02985289
112	0xbe5bac3f	-0.21452425
113	0xbd8ec4e0	-0.06971145
114	0xbe406e7b	-0.18792145
115	0xbd01da69	-0.031702433
116	0xbded898a	-0.11598499
117	0xbe2c77e8	-0.16842616
118	0xbe1a43a1	-0.15064861
119	0xbe162633	-0.1466301
120	0xbd1529f5	-0.036416966
121	0x3d590df5	0.052991826
122	0xbd4a23e5	-0.049350638
123	0xbde834dd	-0.11338208
124	0xbe10a41b	-0.14125101
125	0x3d1616a9	0.036642704
126	0x3d96bd7a	0.073603585
127	0x3db88876	0.09010403
128	0x3de812e0	0.11331725
129	0x3e795c1d	0.24351545
130	0x3da423c7	0.080146365
131	0xbe5bb24f	-0.21454738
132	0x3e4924a1	0.19642879
133	0x3d0b834e	0.03406077
134	0x3de38604	0.11109546
135	0xbd4e260b	-0.05032925
136	0xbe1e15c3	-0.15437989
137	0x3e216a46	0.15763196
138	0xbb3ae598	-0.0028518196
139	0xbc7217dc	-0.014776196
140	0x3e465e93	0.19372015
141	0xbdfad4d9	-0.12247629
142	0x3b861202	0.004091502
143	0x3df967c6	0.12177996
144	0xbc59e129	-0.013298311
145	0x3d4f79ad	0.05065315
146	0xbd6f9c7d	-0.05849885
147	0x3d76830e	0.060183577
148	0x3de31bd2	0.11089291
149	0xbd729404	-0.05922319
150	0x3da5f21a	0.08102818
151	0xbd681d13	-0.056668352
152	0x3bcc91c9	0.006242965
153	0x3d7c0911	0.061532084
154	0x3de6bfff	0.11267089
155	0xbe2def35	-0.16985781
156	0xbdac7fa6	-0.084227845
157	0x3db58335	0.088629164
158	0x3d86c5bd	0.06580684
159	0xbe170b4f	-0.14750408
160	0xbd129860	-0.035789847
161	0x3e2924e8	0.16517985
162	0x3e067db8	0.13133895
163	0xbe0881c3	-0.1333075
164	0xbc29f2e8	-0.010372855
165	0xbd1fa339	-0.03897402
166	0x3cf27b57	0.029599829
167	0xbe69b137	-0.22821508
168	0xbe11015c	-0.14160675
169	0x3d93d646	0.07218604
170	0xbccb8f60	-0.02484864
171	0xbe1d48c5	-0.1535979
172	0xbe660328	-0.22462142
173	0xbdc73744	-0.09727338
174	0xbdb25250	-0.08707106
175	0x3d9bc70c	0.076063246
176	0x3e2e3acb	0.17014615
177	0x3d0e41ab	0.034730595
178	0xbd182b54	-0.037150696
179	0x3e15374a	0.14571872
180	0x3dcbbfdb	0.09948703
181	0x3e636fad	0.2221057
182	0xbcf82988	-0.030293241
183	0x3cb5dd63	0.022200292
184	0x3e8899af	0.2667975
185	0x3d34ec24	0.044170514
186	0xbe40cd2e	-0.1882827
187	0xbde0c464	-0.109749585
188	0x3d609357	0.054828014
189	0x3e22ac4d	0.1588604
190	0xbe275fa0	-0.16345072
191	0xbe52d908	-0.20590603
192	0xbb4dd6c2	-0.0031408523
193	0x3ddfdede	0.109311804
194	0xbc61a4c6	-0.013772195
195	0xbed0ce2b	-0.40782294
196	0xbe8f6735	-0.28008428
197	0xbdceb3e9	-0.10092909
198	0xbe8cef01	-0.27526096
199	0xbef53112	-0.47889
200	0x3e02ea6c	0.12784737
201	0xbc370fb9	-0.011173182
202	0xbdd7d96a	-0.10539515
203	0x3db66665	0.08906249
204	0x3e25c9da	0.16190282
205	0xbd2ab6ff	-0.041678425
206	0x3ccb53ff	0.024820326
207	0x3e2d45b3	0.1692112
208	0x3df1c429	0.11804993
209	0xbe13e473	-0.14442615
210	0xbbecacca	-0.0072227465
211	0x3e7a5c92	0.24449375
212	0x3d8b2f35	0.067961134
213	0xbdd67dd1	-0.10473216
214	0xbe0ef791	-0.13961627
215	0x3e19a9cf	0.15006183
216	0x3e012c26	0.12614498
217	0xbe106816	-0.14102206
218	0xbd976b03	-0.07393458
219	0xbd7dc592	-0.061955996
220	0xbdb509c3	-0.088397525
221	0xbd9ba191	-0.07599176
222	0xbd688f9a	-0.056777574
223	0xbdda8a93	-0.10670962
224	0xbe4465d3	-0.19179468
225	0x3b54004a	0.0032348805
226	0x3d9fa287	0.077946715
227	0x3e16878d	0.14700146
228	0x3c4bb348	0.012432881
229	0x3e07c496	0.13258585
230	0x3d18043f	0.037113424
231	0x3de0d3cb	0.10977896
232	0xbe3c0653	-0.18361787
233	0xbd95676e	-0.07295118
234	0xbd1758f1	-0.036950056
235	0xbdf999ff	-0.121875755
236	0xbe861395	-0.26186815
237	0xbe82bd50	-0.2553506
238	0x3d4d4e08	0.050123245
239	0x3e26ee0a	0.16301742
240	0xbea4e1ee	-0.3220362
241	0xbd39ecfa	-0.045392014
242	0x3df34195	0.11877743
243	0x3ca8be64	0.020598598
244	0xbdbb2a04	-0.09138873
245	0xbe4422ea	-0.19153944
246	0xbd78b3ee	-0.06071847
247	0xbdbab128	-0.09115821
248	0x3ce8f23c	0.028435819
249	0x3dfc8f78	0.12332052
250	0xbc32bfbb	-0.01090997
251	0x3e057860	0.130342
252	0x3d814c47	0.06313377
253	0xbc902771	-0.017596932
254	0x3ebbba66	0.36665648
255	0xbda480a6	-0.0803235

conv2.bias f4 [16]
0	0x3ecfa026	0.4055187
1	0xbe3c5c58	-0.18394601
2	0x3e51b97b	0.20480911
3	0xbe87cd35	-0.26523748
4	0xbd8d62f9	-0.06903643
5	0xbda479ce	-0.08031045
6	0x3da2d3e4	0.07950571
7	0xbef5cfd3	-0.4801012
8	0xbe83fb63	-0.2577773
9	0xbd1256ee	-0.035727434
10	0xbe235707	-0.15951167
11	0x3b3dcc88	0.0028961021
12	0x3f311b82	0.691826
13	0x3e367efb	0.17821877
14	0xbe94740c	-0.28994787
15	0xbf2d157d	-0.67610914

fc1.weight f4 [120, 400]
0	0xbd3fb58a	-0.04680399
1	0xbcebca09	-0.028782861
2	0x3c8bab00	0.017049313
3	0xbd4a74ef	-0.049427923
4	0xbcc48350	-0.023988396
5	0x3d4aee3e	0.04954361
6	0x3cb57352	0.022149716
7	0x3c88ac0c	0.0166836
8	0x3a81847c	0.0009881402
9	0x3d258105	0.040406246
10	0x3c30fcae	0.010802431
11	0x3c89b7db	0.016811302
12	0x3d29fa20	0.041498303
13	0xbd123d25	-0.035702843
14	0xbcfaadf4	-0.030600525
15	0xbd3abb5f	-0.045588847
16	0x3ce2b504	0.027674206
17	0xbd01b648	-0.031667978
18	0xbd50b479	-0.050953362
19	0xbc17f326	-0.00927428
20	0x3c096720	0.008386403
21	0xbcc51be0	-0.024061143
22	0x3d07ab52	0.03312237
23	0xbd3b2591	-0.045690123
24	0xbd4771af	-0.0486924
25	0xbb70b02b	-0.0036726098
26	0xbcfb62fd	-0.03068685
27	0xbd1bc596	-0.03803023
28	0xbadffeb6	-0.001708946
29	0xbc8a841c	-0.016908698
30	0xbd3f4ec2	-0.04670597
31	0x3cfde472	0.03099272
32	0x3d2bf0d8	0.041977733
33	0xbca71294	-0.0203946
34	0x3c9a1ef3	0.018813586
35	0xbc430dbf	-0.011905133
36	0xbce6abde	-0.028158125
37	0x3c8c6211	0.017136605
38	0xbca00406	-0.019533169
39	0x3c491b3a	0.012274558
40	0xbcbb9beb	-0.022901496
41	0xbd1e5980	-0.038659573
42	0x3bbb2dcb	0.005712246
43	0x3c83276e	0.016010012
44	0x3cc248db	0.02371638
45	0xbcd1f256	-0.02562825
46	0xbc196bee	-0.009364111
47	0xbd0db050	-0.034591973
48	0x3b4dea5a	0.0031420202
49	0x3c4f6a9f	0.012659698
50	0xbcdcb2d6	-0.026940744
51	0x3d2554f0	0.040364206
52	0xbc18d729	-0.009328642
53	0xbcee72c1	-0.029107453
54	0x3ba08088	0.0048981346
55	0xbcf70189	-0.0301521
56	0x3d0cbe30	0.034361064
57	0xbcc59185	-0.02411724
58	0xbd38d65c	-0.045126304
59	0xbd378298	-0.04480228
60	0xbce29947	-0.027660979
61	0xbc3dd61b	-0.011586691
62	0xbc872dde	-0.016501363
63	0xbd4ed641	-0.050497297
64	0x3c052977	0.008127562
65	0x3ccc7f01	0.024962904
66	0xbcae9781	-0.021312477
67	0xbd17c9a2	-0.037057526
68	0xbd295d4b	-0.041348737
69	0x3d096d35	0.033551414
70	0x3d0ffdae	0.035154037
71	0x3ca73c48	0.020414487
72	0x3c5b7f54	0.013397057
73	0x3c6c740e	0.0144319665
74	0xbd624277	-0.055239167
75	0x3c98d835	0.018657783
76	0xbbe617e2	-0.00702189
77	0xbcf4abb0	-0.029867023
78	0xbb204e1a	-0.0024460615
79	0x3cc5c2f8	0.02414082
80	0xbd46fa7b	-0.04857872
81	0x3c709121	0.014683039
82	0x3d15c555	0.036565144
83	0x3d226c93	0.039654326
84	0xbcc622d4	-0.02418653
85	0x3cd38762	0.025821391
86	0xbc5d1f1a	-0.013496185
87	0xbcc3beb8	-0.023894653
88	0x3d196248	0.037447244
89	0xbac64a94	-0.0015128427
90	0xbd12c703	-0.035834324
91	0xba67857c	-0.00088318414
92	0xbd1daf88	-0.038497478
93	0x3c741a83	0.014898899
94	0xbd0133e9	-0.031543646
95	0x3d1259d2	0.03573019
96	0xbc3eaa52	-0.011637287
97	0xbd24f0ba	-0.040268637
98	0x3d1a4790	0.037665904
99	0xbcda0a7b	-0.026616326
100	0x3d4627c5	0.04837777
101	0x3cd4de0a	0.025984783
102	0x3d0a5941	0.033776525
103	0xbd3f6873	-0.04673047
104	0xbc8f3f41	-0.017486217
105	0x3cb4093c	0.02197706
106	0xbc157fd2	-0.009124713
107	0x3bdcf0ff	0.006742596
108	0xbb3bd8cf	-0.0028663164
109	0x3c1e9f0f	0.009681477
110	0x3d4179bd	0.04723524
111	0xbc980f84	-0.018562086
112	0x3be86d04	0.007093074
113	0x3ca130c0	0.019676566
114	0xbcbfef3e	-0.02342951
115	0xbd3bdcab	-0.045864742
116	0xbc568f54	-0.0130956955
117	0x3cb5330d	0.02211907
118	0x3c8e6798	0.017383382
119	0xbd0c22a0	-0.03421271
120	0x3d40df41	0.04708791
121	0x3b841d9a	0.004031849
122	0x3c0910d6	0.00836583
123	0xbc9cb922	-0.019131247
124	0x3d15cfd0	0.03657514
125	0xbd2cd3c3	-0.04219414
126	0x3a886e86	0.0010408915
127	0xbc4ed97a	-0.012625093
128	0x3cd6511b	0.026161721
129	0x3c791de0	0.015204877
130	0x3cba86d4	0.02276937
131	0xbb56c15a	-0.0032769055
132	0xbd109a4d	-0.035303403
133	0xbbd5407d	-0.0065079317
134	0xbc5ea11e	-0.013588218
135	0xbce64846	-0.028110635
136	0xbd181959	-0.03713355
137	0xbbb6b9c5	-0.0055763447
138	0x3c806e5b	0.015677622
139	0x3b85e5c2	0.004086227
140	0xbcf44bb2	-0.02982125
141	0x3d0530d2	0.03251726
142	0x3c64b215	0.013958474
143	0xbcae0308	-0.02124168
144	0x3ae9ad31	0.0017828104
145	0x3be2ae9f	0.006917789
146	0x3d47c7fb	0.0487747
147	0xbc1662c9	-0.009178826
148	0x3c98c43d	0.018648261
149	0x3caf7018	0.021415755
150	0x3b43b86a	0.0029864558
151	0x3c79636f	0.015221461
152	0xbd509346	-0.0509217
153	0xbd247845	-0.04015376
154	0xbd0fe904	-0.03513433
155	0xbd25d8c9	-0.040489946
156	0x3cbd3c76	0.02310012
157	0xbcaed0c1	-0.021339776
158	0x3b0ae687	0.0021194534
159	0xbcc77ffc	-0.02435302
160	0xbc6dcdb2	-0.014514374
161	0x3be94f4e	0.0071200496
162	0x3c2c2350	0.010506466
163	0xbd3c67d7	-0.045997467
164	0xbc9350e8	-0.017982915
165	0x3c2cb276	0.010540595
166	0x3cef20f7	0.029190524
167	0xbcf31813	-0.029674565
168	0xbd4fd93e	-0.050744288
169	0xbadb9986	-0.0016754128
170	0xbc9dbea8	-0.019255951
171	0x3c9e31ec	0.019310914
172	0xbcc26415	-0.023729363
173	0xbcff457a	-0.031161059
174	0x3c988695	0.018618861
175	0x3c8dcd20	0.017309725
176	0x3cc496bf	0.023997663
177	0x3d028df9	0.031873677
178	0xbd1fc9a5	-0.039010663
179	0xbc63fbe5	-0.013915037
180	0xbd419a12	-0.047266074
181	0xbc125dc0	-0.008933485
182	0x3b49a5e1	0.0030769038
183	0x3bc58b3b	0.0060285605
184	0xbc98e860	-0.018665493
185	0x3d037ae5	0.032099623
186	0xbc2c1556	-0.010503134
187	0xb92b87ec	-0.00016358466
188	0x3cc4ea34	0.024037458
189	0xbafe2818	-0.0019390611
190	0xbd36f462	-0.044666655
191	0xbd3236ac	-0.04350917
192	0x3c1f8a0c	0.009737503
193	0x3d2f1a50	0.042749703
194	0xbc8ec1a1	-0.017426314
195	0x3d231af4	0.039820626
196	0x3cc09fa4	0.023513623
197	0x3c5a0c03	0.013308528
198	0xbc8432a9	-0.016137438
199	0xbd3fd35b	-0.046832424
200	0xbcc870fa	-0.024467934
201	0x3d1d0019	0.03833017
202	0xbd22d1a5	-0.039750714
203	0xbd4a4063	-0.04937781
204	0x3c519a40	0.012793124
205	0xbc771c2b	-0.015082399
206	0x3d40df75	0.047088105
207	0xbd18b712	-0.037283964
208	0xbd299992	-0.04140622
209	0x3d0b22ac	0.033968613
210	0xbc0b9c90	-0.008521214
211	0x3d3908a0	0.04517424
212	0x3c7c03c4	0.015381757
213	0x3b21dde0	0.0024698898
214	0x3c7aa0d2	0.015297132
215	0x3a2334c3	0.00062258187
216	0x3cd11432	0.025522325
217	0xbcf3b8d8	-0.029751226
218	0x3d410e4e	0.047132783
219	0xbd02b261	-0.031908397
220	0x3c5d928f	0.013523712
221	0xbb4de2d2	-0.0031415713
222	0x3d27b30e	0.040942244
223	0x3c1e567f	0.009664177
224	0x3d121388	0.035663158
225	0xbd424764	-0.047431365
226	0xbd4bbcd9	-0.049740646
227	0xbd3884c8	-0.045048505
228	0x3d06f2d3	0.03294642
229	0xbca73f0a	-0.020415802
230	0xbd243ce1	-0.04009712
231	0x3c84ad56	0.016195934
232	0xbd0eca04	-0.034860626
233	0xbce30515	-0.027712384
234	0x3ca70ac0	0.020390868
235	0x3d2fa62e	0.04288309
236	0x3b1043c7	0.0022013055
237	0xbcff8693	-0.0311921
238	0xbce013ea	-0.027353246
239	0x3d0b7c81	0.034054283
240	0x3c78ba66	0.01518116
241	0xbd09c1fe	-0.03363227
242	0x3d3d7ba5	0.046260495
243	0x3d40f9ed	0.047113348
244	0x3d41b8c2	0.04729534
245	0x3d07ed1a	0.033185102
246	0xbc8f9837	-0.017528636
247	0x3d421844	0.047386423
248	0x3d051cc1	0.032498125
249	0xbd3e7a44	-0.04650332
250	0xbc97172c	-0.018443666
251	0x3c81562c	0.01578816
252	0x3c9020ba	0.01759373
253	0xbb190cfb	-0.0023353684
254	0x3ca7a36d	0.02046367
255	0xbc811dd3	-0.015761292

fc1.bias f4 [120]
0	0xbc4fde30	-0.012687251
1	0x3cc1ab42	0.023641232
2	0x3d2d15e7	0.042257216
3	0xbd2e58ff	-0.042565342
4	0xbb803afb	-0.003913281
5	0x3df8532e	0.1212524
6	0xbd6b393e	-0.057427637
7	0x3d9d5433	0.07682075
8	0x3cbc99a5	0.023022482
9	0xbd22abc8	-0.039714605
10	0x3d007fe9	0.031371985
11	0x3d245c0d	0.04012685
12	0xbcb32d74	-0.02187226
13	0xbd059ef5	-0.032622296
14	0xbd081b70	-0.03322929
15	0xbd74b173	-0.05973954
16	0xbcb6eac8	-0.02232875
17	0x3d626421	0.05527127
18	0x3e036121	0.1283002
19	0x3d945649	0.0724302
20	0x3e0ac73a	0.13552561
21	0xbce90f3e	-0.02844965
22	0xbdf444dc	-0.119271964
23	0x3d62fd38	0.05541727
24	0x3db26b22	0.0871184
25	0x3d93f61f	0.07224678
26	0xbdd208a0	-0.10255551
27	0xbe31fcbc	-0.17381567
28	0xbda93dd0	-0.08263743
29	0xbe55ca7c	-0.20878023
30	0xbcc1e4f0	-0.023668736
31	0x3d73bf74	0.059508756
32	0x3d2c8c17	0.042125788
33	0x3c6960eb	0.014244298
34	0x3db65798	0.08903426
35	0x3da46c0f	0.08028423
36	0x3a6f5edb	0.0009131261
37	0xbc803575	-0.01565049
38	0xbd907640	-0.070538044
39	0x3df3777f	0.118880264
40	0xbd2266ea	-0.039648928
41	0xbc8735eb	-0.016505202
42	0xbe38cd6b	-0.1804711
43	0xbcfc445d	-0.030794317
44	0x3df9cc94	0.12197223
45	0x3dc24a85	0.0948687
46	0xbccb354d	-0.02480569
47	0x3ce6e5ab	0.028185686
48	0x3e0c328f	0.13691162
49	0x3daaeeb3	0.083463095
50	0x3e008121	0.12549259
51	0xbbe133cc	-0.0068726297
52	0x3e0f8179	0.14014234
53	0xbd7562db	-0.05990873
54	0xbe0513af	-0.1299579
55	0x3e0e322c	0.13886327
56	0xbcd457a4	-0.025920697
57	0x3e17a7b7	0.14810072
58	0x3d365c52	0.044521637
59	0x3d4e2022	0.050323613
60	0xbdbe7ea0	-0.093014956
61	0xbce10fbd	-0.027473325
62	0x3b5c6bc1	0.0033633562
63	0x3cf48133	0.029846763
64	0x3d98b9c3	0.07457306
65	0xbce5ccea	-0.028051812
66	0x3d79e1b7	0.061006274
67	0xbc3ae1bf	-0.011406361
68	0xbc89a7bc	-0.016803615
69	0x3c807c48	0.015684262
70	0xbd0a55e4	-0.033773318
71	0x3c88e5de	0.016711172
72	0x3dc59162	0.0964687
73	0x3c885594	0.01664237
74	0xbd02f7b6	-0.031974517
75	0x3d0bd500	0.03413868
76	0xbe0c0db9	-0.1367711
77	0xbd846173	-0.064638995
78	0xbde289a1	-0.11061407
79	0x3d9dc460	0.07703471
80	0xbd35e51d	-0.044407953
81	0xbb06e8e3	-0.0020585589
82	0xbcf1a729	-0.029498653
83	0x3e2333bc	0.15937704
84	0x3c6aaec7	0.014323897
85	0x3e21d249	0.15802874
86	0x3d3491a2	0.0440842
87	0x3bdaafbb	0.0066737807
88	0x3e06d822	0.13168386
89	0x3df2c86d	0.118546344
90	0xbd127c47	-0.03576305
91	0xbd31cf43	-0.04341055
92	0xbcba754f	-0.022761015
93	0x3c694211	0.014236943
94	0x3c238774	0.009981025
95	0x3e2932c0	0.16523266
96	0x3d6725ca	0.056432523
97	0xbcc238b8	-0.023708686
98	0x3ca01361	0.01954049
99	0x3d8488ec	0.06471428
100	0x3e6a8b70	0.22904754
101	0xbc0761e7	-0.008263088
102	0x3d0f8379	0.03503749
103	0x3e86bddc	0.26316726
104	0x3d7d8273	0.061891984
105	0x3d09d98d	0.03365474
106	0x3d8ad052	0.06778015
107	0xbdb6102c	-0.08889803
108	0xbd63bbfb	-0.055599194
109	0x3dca53a7	0.09879237
110	0xbd5f0a0d	-0.054452945
111	0xbd4b0791	-0.049567763
112	0x3d0722da	0.03299222
113	0xbe00889c	-0.12552112
114	0xbe1537fc	-0.14572138
115	0xbd3d813e	-0.046265833
116	0xbd592dfa	-0.053022362
117	0x3d795db7	0.06088039
118	0xbb8ad127	-0.0042363587
119	0xbba08671	-0.004898839

fc2.weight f4 [84, 120]
0	0xbdafb7f2	-0.08580007
1	0x3ce93ddb	0.028471878
2	0xbc411760	-0.011785358
3	0x3d0c45ae	0.03424614
4	0xbddae54c	-0.10688266
5	0xbd2c0f00	-0.042006493
6	0x3d68cac6	0.056834005
7	0xbd71b787	-0.059012916
8	0x3d93f46c	0.07224354
9	0x3ce5b891	0.02804211
10	0x3d8c2867	0.06843644
11	0x3dca9895	0.09892384
12	0x3dcb9fd6	0.09942596
13	0xbdae02fd	-0.08496664
14	0x3d5cf8ae	0.053948097
15	0x3d3cb68b	0.046072524
16	0xbd1c094e	-0.03809481
17	0x3d6c5efd	0.057707775
18	0x3cd738d0	0.026272207
19	0x3e34f117	0.17670093
20	0xbceeb339	-0.029138194
21	0xbd512867	-0.05106392
22	0xbd0bc11f	-0.03411972
23	0x3da849e8	0.082172215
24	0x3db85658	0.09000844
25	0x3db94ce7	0.09047871
26	0x3de689a1	0.112567194
27	0x3c0145e9	0.007890203
28	0x3ddc7636	0.107647344
29	0xbd8e2de9	-0.069423504
30	0x3dc467f1	0.09590138
31	0xbd8736fd	-0.06602285
32	0x3dac3c11	0.08409894
33	0xbd0d98b8	-0.034569472
34	0xbd1d61d2	-0.038423367
35	0xbdb24728	-0.08704978
36	0x3d32fc61	0.04369772
37	0xbc976803	-0.018482214
38	0x3d18b8fa	0.037285782
39	0xbd11b11e	-0.035569303
40	0x3b17ff8d	0.0023193092
41	0x3cd5d2b5	0.02610145
42	0xbe10eab8	-0.14152038
43	0xbcdaefcf	-0.026725678
44	0x3d4cc4b7	0.04999229
45	0x3d8b53fb	0.068031274
46	0x3d9592e3	0.07303407
47	0x3c5d5e10	0.013511196
48	0x3df028b3	0.11726513
49	0x3e11d12d	0.1423995
50	0x3cdb63f3	0.026781058
51	0x3d974bf2	0.07387532
52	0x3cb3ed5f	0.021963773
53	0x3d322972	0.043496557
54	0x3e48708a	0.1957418
55	0xbd5a1c0d	-0.053249408
56	0xbda44417	-0.080207996
57	0x3df7138e	0.12064277
58	0xbd928661	-0.07154537
59	0xbd837caa	-0.06420262
60	0xbd973370	-0.07382858
61	0xbd3321a0	-0.04373324
62	0xbce851a7	-0.028359247
63	0x3e149b1b	0.14512293
64	0xbcfebec5	-0.031096825
65	0x3db3ef68	0.087858975
66	0x3ce575a3	0.028010195
67	0xbd952ccf	-0.07283937
68	0xbd6a904e	-0.057266526
69	0xbde90c9a	-0.11379357
70	0xbc5595c2	-0.013036193
71	0x3cd4d1d5	0.025978962
72	0x3e1bb956	0.15207419
73	0xbdb90511	-0.090341695
74	0xbd7e99f7	-0.06215855
75	0x3dc71246	0.09720282
76	0x3d07b285	0.033129234
77	0xbd3a616c	-0.045503065
78	0x3e16ae84	0.1471501
79	0x3d9fdda0	0.078059435
80	0x3c8fdeea	0.017562348
81	0x3db839de	0.08995412
82	0xbd27d75e	-0.040976875
83	0xbd3af273	-0.045641374
84	0xbd825371	-0.063635714
85	0xbd937bf4	-0.072013766
86	0x3b1bf46c	0.002379681
87	0x3e297c5d	0.16551347
88	0x3c608a94	0.013704915
89	0x3bd008d6	0.0063487096
90	0xbd754ed1	-0.05988962
91	0x3c478310	0.012177244
92	0x3de3ef34	0.11129609
93	0x3d6e37e0	0.058158755
94	0xbc0cd793	-0.008596319
95	0xbba35339	-0.004984286
96	0x3d04619a	0.032319643
97	0xbcfb7a3d	-0.030697936
98	0xbdb66dd5	-0.089076675
99	0x3d89f1c1	0.06735564
100	0xbd43158e	-0.047627978
101	0x3d6085e1	0.054815177
102	0xbca92257	-0.020646257
103	0x3d327c4e	0.043575577
104	0xb9182b6e	-0.00014512028
105	0x3baabec7	0.0052107307
106	0x3db048d8	0.08607644
107	0xbc6d666b	-0.01448975
108	0x3cad2613	0.02113632
109	0xbb4d31a0	-0.0031310096
110	0xbdce2e8a	-0.1006747
111	0xbd1f7b5f	-0.038936015
112	0x3c4b0d8a	0.012393365
113	0xbe097ff5	-0.13427718
114	0x3d2acf4b	0.041701596
115	0xbd4e1cbd	-0.050320376
116	0xbdc37f71	-0.09545792
117	0x3d84dc43	0.06487324
118	0x3cc07490	0.023493081
119	0x3d5c556f	0.053792413
120	0xbdb573f4	-0.08860007
121	0x3d2772b0	0.04088086
122	0x3dbb01f5	0.09131233
123	0x3d91bd06	0.071161315
124	0xbd280f2f	-0.041030105
125	0xbd4d1c1b	-0.05007563
126	0xbdf09a95	-0.11748234
127	0x3d7026ab	0.058630627
128	0xbc636362	-0.013878675
129	0xbc89c714	-0.01681856
130	0xbd8604a7	-0.06543856
131	0xbdaf5098	-0.08560294
132	0x3c07e3d4	0.008294065
133	0xbd17fd91	-0.037107054
134	0xbcc35e1b	-0.023848584
135	0xbdca9e2f	-0.098934524
136	0xbd0cc13b	-0.034363966
137	0xbd2c28d2	-0.042031117
138	0x3dd7b935	0.10533372
139	0xbd453827	-0.048149254
140	0x3b097b09	0.0020977876
141	0xbb955f89	-0.004558508
142	0x3c729938	0.014807038
143	0x3c92aa31	0.01790342
144	0x3d701974	0.058618024
145	0xbd6a71b1	-0.05723733
146	0x3d219477	0.039448228
147	0x3c5469db	0.012964691
148	0xbdca2a40	-0.0987134
149	0x3ca21502	0.019785408
150	0xbd469bce	-0.04848843
151	0xbd93267d	-0.071850754
152	0xbc142ebc	-0.0090443455
153	0x3cada7a9	0.02119811
154	0xba7b8abb	-0.00095955626
155	0x3c2c177a	0.010503644
156	0x3db811fc	0.08987805
157	0xbd95c6e5	-0.07313327
158	0xbdae6d82	-0.08516981
159	0x3e04b05f	0.12957905
160	0x3d959a86	0.07304864
161	0xbbeddbfd	-0.0072588907
162	0xbcbbe4d5	-0.022936264
163	0xbd484c27	-0.04890075
164	0x3dc1c04e	0.09460507
165	0x3d97a80b	0.074050985
166	0x3d059d1d	0.032620538
167	0xbd1111d5	-0.035417397
168	0xbda17081	-0.078827865
169	0x3dafc98e	0.085833654
170	0x3defa35f	0.117010824
171	0xbc3b3c6b	-0.011427979
172	0x3dd044e6	0.10169391
173	0xbc310f09	-0.010806807
174	0xbdb23f1a	-0.08703442
175	0xbc94790b	-0.018124124
176	0x3d351898	0.044212908
177	0x3bf0122a	0.007326384
178	0x3dd7580d	0.10514841
179	0xbd948a68	-0.072529614
180	0xbd6fa8bb	-0.058510523
181	0x3cc70f34	0.024299242
182	0x3d15913b	0.036515456
183	0x3c10d21d	0.008839157
184	0xbcb2ebfb	-0.02184104
185	0xbd236927	-0.039895203
186	0x3d93f95d	0.07225297
187	0xbd83641a	-0.06415577
188	0x3b74f65f	0.0037378294
189	0x3b707110	0.0036688484
190	0xbde45ac7	-0.11150127
191	0xbca0b883	-0.019619232
192	0xbd8015c9	-0.06254155
193	0x3da881a7	0.08227854
194	0xbd2b4da0	-0.041822076
195	0xbce1ba38	-0.027554616
196	0xbd01c4a2	-0.031681664
197	0x3db37fd9	0.087646194
198	0xbdc9e48a	-0.098580435
199	0xbcc669c8	-0.024220362
200	0xbd81be16	-0.06335084
201	0x3cba2752	0.022723828
202	0xbca02bda	-0.01955216
203	0xbd81415a	-0.06311293
204	0x3bec7ca5	0.007217007
205	0x3d9b11b2	0.075717345
206	0x3ca50d59	0.020147966
207	0xbcddaa7f	-0.027058838
208	0xbc6eb2e9	-0.014569023
209	0xbd8366d9	-0.06416101
210	0x391c80e3	0.00014925333
211	0x3dc4bfbb	0.09606882
212	0xbdbcb792	-0.09214701
213	0xbde475ba	-0.11155267
214	0x3c8f909c	0.01752501
215	0xbcce9e2b	-0.025221905
216	0x3d5fe9cd	0.05466633
217	0xbd81ba83	-0.063344024
218	0xbd7b2d79	-0.061322663
219	0xbdce0c48	-0.10060936
220	0xbdaf395d	-0.08555863
221	0xbc12c394	-0.008957762
222	0xbd2fe98f	-0.04294735
223	0x3e32f480	0.17476082
224	0xbb901214	-0.0043966863
225	0x3db53f4f	0.08849966
226	0xbc0d3923	-0.0086195795
227	0xbc010bbd	-0.007876334
228	0x3da56b7a	0.0807714
229	0xbd1af7ab	-0.03783385
230	0xbdf12a35	-0.117756285
231	0xbd8ec4c6	-0.06971125
232	0x3c091cad	0.008368653
233	0x3d77a691	0.060461584
234	0x3d9d5de6	0.07683925
235	0xbd96bce4	-0.07360247
236	0x3d9de4dd	0.07709668
237	0x3d41e40a	0.047336616
238	0x3cb36e1a	0.021903086
239	0xbd6b18bd	-0.05739664
240	0xbd0f0ad9	-0.034922455
241	0xbc25b340	-0.010113537
242	0xbc81a5c4	-0.015826114
243	0xbd158000	-0.036499023
244	0xbd3144f6	-0.043278657
245	0xbc9b919e	-0.018990334
246	0x3dbec669	0.093151875
247	0x3d6b40de	0.05743491
248	0xbdfa95a9	-0.12235577
249	0xbd7dab93	-0.061931204
250	0xbd405b8c	-0.046962306
251	0xbc9f5f37	-0.019454582
252	0xbdd3ea0a	-0.10347374
253	0x3bf49482	0.0074639926
254	0x3d994381	0.074835785
255	0xbda34187	-0.07971483

fc2.bias f4 [84]
0	0xbd16fb29	-0.03686062
1	0x3dd1f5e4	0.10251978
2	0x3dacfc8b	0.08446606
3	0x3da0e7e6	0.07856731
4	0xbdc9c1d7	-0.09851425
5	0x3dc713d0	0.09720576
6	0xbe00118f	-0.12506698
7	0x3e5a3e70	0.2131288
8	0x3cdda2af	0.027055113
9	0x3e3938bc	0.18088049
10	0xbdbae174	-0.09125033
11	0xbe93475d	-0.28765383
12	0xbd6c2d23	-0.057660233
13	0x3d0696be	0.032858603
14	0x3cbbd1bd	0.02292716
15	0xbccfb35c	-0.02535408
16	0x3eaf53b1	0.3424354
17	0x3e86c8b9	0.26325014
18	0xbd8a6bc6	-0.067588374
19	0x3d5feb66	0.054667853
20	0xbcda3f32	-0.026641462
21	0x3da3fa98	0.08006781
22	0xbdd650d6	-0.10464637
23	0x3e5285cb	0.2055885
24	0xbe6323ca	-0.22181621
25	0xbdedd179	-0.11612219
26	0x3deb38f7	0.114854746
27	0xbdb7946f	-0.08963858
28	0x3e77221c	0.24134105
29	0x3e6df6f9	0.23238744
30	0xbdbf6689	-0.09345729
31	0x3ea75cb5	0.32687917
32	0xbdbbc724	-0.091688424
33	0x3e61c918	0.22049367
34	0xbc960672	-0.01831362
35	0x3d2a4028	0.04156509
36	0x3d18f4e8	0.037342936
37	0x3ee7322e	0.45155472
38	0x3df01782	0.11723234
39	0xbdbb4b99	-0.091452785
40	0xbd6c7d64	-0.05773677
41	0x3e059872	0.13046435
42	0x3e953ff5	0.29150358
43	0x3d0b6fbf	0.034042116
44	0x3d8e00da	0.06933756
45	0x3d1998d5	0.037499268
46	0xbdab2b25	-0.083578385
47	0xbe334d61	-0.17509986
48	0x3c978cc8	0.018499747
49	0xbd4e0855	-0.050300915
50	0xbd921998	-0.07133788
51	0x3d3c393e	0.045953028
52	0xbc162af8	-0.009165518
53	0x3eb0f26a	0.34559947
54	0xbd0df451	-0.034656826
55	0xbdae6fc5	-0.08517412
56	0x3e62af7a	0.22137251
57	0x3d6551a7	0.055986073
58	0xbdb4029a	-0.08789559
59	0xbe0c4242	-0.1369715
60	0x3c13ea36	0.009028008
61	0x3e1c56f8	0.15267551
62	0xbd635a1e	-0.055505864
63	0xbd952e05	-0.07284168
64	0xbce02357	-0.027360601
65	0x3df08b20	0.11745286
66	0x3e9177fa	0.28411847
67	0x3dc5ed8a	0.096644476
68	0x3aa28a1c	0.0012400779
69	0x3e66d203	0.2254105
70	0x3cf396a6	0.02973492
71	0x3e60ad48	0.21941102
72	0x3cfc695c	0.030811958
73	0x3e3b2c03	0.18278508
74	0x3dfb0a59	0.12257833
75	0xbd211d24	-0.03933443
76	0x3d2d06e7	0.04224291
77	0xbc4220ea	-0.011848668
78	0x3d8e140a	0.06937416
79	0x3d6d7f77	0.057982888
80	0xbda30a00	-0.07960892
81	0x3e9b7535	0.3036286
82	0x3d0b371e	0.03398811
83	0x3dcaa4b1	0.09894694

fc3.weight f4 [10, 84]
0	0x3e35aef5	0.17742522
1	0xbd8a4c3e	-0.06752823
2	0xbdd1675f	-0.102247946
3	0xbdd8f9c5	-0.10594515
4	0x3e143570	0.1447351
5	0x3e59ce9e	0.21270224
6	0xbca9f15a	-0.020744968
7	0xbe90b33c	-0.28261745
8	0xbcb8afd7	-0.022544784
9	0xbe04db7d	-0.12974353
10	0x3d56511e	0.052323453
11	0x3b9885d7	0.004654627
12	0xbe2dd7b1	-0.16976811
13	0x3dccb728	0.09995872
14	0xbe0c913a	-0.13727275
15	0x3e4eeaa2	0.20206693
16	0xbe6f80db	-0.23388998
17	0xbd9a91f1	-0.07547367
18	0x3d693c54	0.0569423
19	0xbd90eaeb	-0.07076057
20	0x3d10edda	0.035383083
21	0xbc688c09	-0.014193543
22	0xbd5ebd85	-0.05437996
23	0xbe7abcd1	-0.2448609
24	0xbddf5134	-0.1090416
25	0x3e477343	0.19477563
26	0xbde26592	-0.11054529
27	0x3db26949	0.08711488
28	0xbe127cbf	-0.143054
29	0x3e923ee7	0.28563616
30	0xbd837e72	-0.06420602
31	0x3e8f759a	0.2801941
32	0x3d8afd45	0.067865886
33	0xbce667ff	-0.028125761
34	0x3e64f903	0.22360615
35	0xbe5062e3	-0.20350222
36	0xbe4631d1	-0.19354941
37	0x3e1eea6a	0.1551911
38	0x3c3fc757	0.011705241
39	0xbdac7441	-0.08420611
40	0x3dc6eb04	0.097127944
41	0xbddbcafb	-0.10732075
42	0x3dad0565	0.084482946
43	0x3e07227c	0.13196748
44	0xbe87b17b	-0.26502594
45	0xbdd1938e	-0.10233222
46	0x3cb87b4c	0.02251973
47	0x3b6482bd	0.0034867965
48	0x3e0fae2e	0.14031288
49	0x3d857c1a	0.06517811
50	0x3c9cca37	0.019139392
51	0xbd15510c	-0.036454245
52	0xbd75c206	-0.05999949
53	0x3d3e1376	0.04640528
54	0xbdc3681f	-0.09541344
55	0xbd798feb	-0.060928266
56	0xbd691738	-0.05690691
57	0x3e7bc716	0.24587664
58	0x3da94f71	0.08267105
59	0x3d810490	0.06299698
60	0xbd9f06e8	-0.07764989
61	0xbdd6501e	-0.104645
62	0x3da1537e	0.07877253
63	0x3d9dfcfd	0.07714269
64	0xbd93356a	-0.07187922
65	0x3d2dba60	0.04241407
66	0x3dde9859	0.10868902
67	0x3d8b3b2e	0.06798397
68	0x3dd44960	0.10365558
69	0xbce3ac90	-0.027792245
70	0xbdbd488a	-0.09242351
71	0xbc973ee6	-0.01846261
72	0x3da27743	0.079329036
73	0x3d0446ab	0.032293957
74	0x3e8e37c8	0.27776933
75	0xbe2618b0	-0.16220355
76	0xbd98667e	-0.07441424
77	0xbce272b7	-0.02764259
78	0x3e1288e9	0.1431004
79	0x3e374b82	0.17899898
80	0xbdaff1fe	-0.08591078
81	0x3e408a9b	0.18802874
82	0x3e98b33a	0.2982424
83	0x3d476333	0.048678588
84	0xbd073ad0	-0.033015072
85	0xbe0ae369	-0.13563313
86	0x3ca44a08	0.020054832
87	0xbe4e6edb	-0.20159476
88	0xbdcc5fdf	-0.099792235
89	0xbdfe31c7	-0.12411838
90	0xbda414bf	-0.080117695
91	0xbe18306e	-0.14862224
92	0xbe4c10a9	-0.1992823
93	0x3d41e315	0.047335703
94	0xb88bfa17	-6.674619e-05
95	0x3d8be629	0.06831009
96	0xbd94db0f	-0.072683446
97	0xbdd143d6	-0.10218017
98	0x3cb40cc9	0.021978753
99	0xbc146ce4	-0.009059165
100	0xbe4acfdb	-0.19805853
101	0xbeba1264	-0.36342156
102	0x3d699544	0.057027116
103	0x3d920bd3	0.071311615
104	0xbb9043a4	-0.0044025946
105	0x3d98f08e	0.07467757
106	0x3ce1c044	0.0275575
107	0xbd82b64a	-0.06382425
108	0x3ee3f972	0.4452625
109	0xbd0588c2	-0.032601126
110	0xbdd233f2	-0.10263814
111	0x3c73684b	0.014856408
112	0xbd390315	-0.045168955
113	0xbe35f292	-0.17768314
114	0x3d980935	0.07423631
115	0xbbab9b8e	-0.0052370494
116	0x3d6f06e0	0.058356166
117	0x3d98e9d8	0.07466477
118	0xbd77e6f4	-0.06052299
119	0xbd685e07	-0.056730296
120	0x3e0e1b7f	0.13877676
121	0xbe8b0b95	-0.27157274
122	0xbd3b1a3f	-0.045679327
123	0xbdcf478d	-0.10121069
124	0xbd555de3	-0.05209149
125	0xbd238572	-0.039922185
126	0xbe1aa53a	-0.15102091
127	0xbce56ff9	-0.028007494
128	0xbe164542	-0.14674857
129	0x3db1ab53	0.086752556
130	0x3be15581	0.006876648
131	0x3e9eca19	0.31013563
132	0xbb1e3b22	-0.0024144133
133	0xbd8099d4	-0.062793404
134	0xbb5d5a6a	-0.0033775815
135	0x3d843593	0.06455531
136	0x3eb4eece	0.35338444
137	0xbd70fb01	-0.058833126
138	0x3d3f15f1	0.046651784
139	0xbdc2959d	-0.09501193
140	0xbd0f01e1	-0.0349139
141	0xbdd4fd96	-0.1039993
142	0xbcc9905b	-0.024604967
143	0x3e447395	0.19184716
144	0xbd9f8663	-0.07789304
145	0xbd828183	-0.06372359
146	0xbd84d2fb	-0.06485554
147	0x3d4f86fc	0.05066584
148	0x3d1f2ce1	0.03886116
149	0xbda30659	-0.07960195
150	0xbdb49eb1	-0.088193305
151	0x3d5364c1	0.05160976
152	0xbb80aa84	-0.003926577
153	0xbc4fb0d5	-0.012676437
154	0xbd089e31	-0.033353988
155	0x3dbe1f0b	0.09283265
156	0x3d48ab4d	0.04899149
157	0xbe6eac66	-0.23307952
158	0x3ccc7054	0.024955906
159	0x3e2751ed	0.16339846
160	0x3daa9eac	0.083310455
161	0xbcd8eb87	-0.026479496
162	0x3e6d3280	0.23163795
163	0x3d74ba80	0.059748173
164	0xbcbd452a	-0.023104269
165	0x3e3834bc	0.17988867
166	0x3ea64db2	0.32481152
167	0x3c8a821e	0.016907748
168	0x3e7c8812	0.24661282
169	0x3d4e93b8	0.050433844
170	0xbe051839	-0.12997521
171	0x3e786ec5	0.24261005
172	0x3cc057ac	0.023479305
173	0x3e55aa57	0.2086576
174	0xbe4c380e	-0.19943258
175	0x3df632f1	0.12021435
176	0x3e64c859	0.22342052
177	0xbded0674	-0.115734965
178	0xbc4341ab	-0.011917512
179	0x3c3b4b1b	0.011431481
180	0xbe2cb2b7	-0.1686505
181	0xbd2c5e72	-0.042082258
182	0x3e348e02	0.17632297
183	0xbc3b9d52	-0.011451082
184	0x3dbf69db	0.09346362
185	0x3e489ff3	0.19592266
186	0x3dda77f0	0.106674075
187	0x3ddae38a	0.10687931
188	0x39cf08f2	0.00039488781
189	0xbdc388ee	-0.09547602
190	0xbd29e2f5	-0.04147621
191	0x3d6ff56c	0.058583662
192	0xbd4c6397	-0.049899664
193	0x3d4bd0f9	0.04975984
194	0xbe226db0	-0.15862155
195	0x3cdd1f3c	0.026992433
196	0x3e685e6b	0.22692268
197	0x3e3ab041	0.18231298
198	0xbdcdaa81	-0.10042287
199	0x3c78723c	0.015163954
200	0x3e13f6a6	0.14449558
201	0x3dc28259	0.09497518
202	0xbd80eded	-0.06295381
203	0xbd036348	-0.032077104
204	0x3d40f8ba	0.047112204
205	0x3eac0a17	0.33601448
206	0x3e2f894c	0.17142218
207	0xbda9db6f	-0.08293807
208	0xbd289c42	-0.041164644
209	0xbd4ed3fc	-0.050495133
210	0x3e0624e6	0.13100013
211	0xbde39cc2	-0.111138836
212	0xbc0ff631	-0.008786724
213	0x3b35a46d	0.0027716414
214	0x3db712a8	0.08939105
215	0xbd5bd149	-0.053666387
216	0x3b5bab6e	0.0033518928
217	0x3c0ed5e8	0.008717991
218	0xbc178f6f	-0.009250506
219	0x3dc8c5ce	0.09803353
220	0xbdb77d7d	-0.08959482
221	0xbd52ad03	-0.051434528
222	0x3df0f9f5	0.117664255
223	0x3d34cb34	0.044139102
224	0x3e3956cc	0.18099517
225	0x3d860685	0.06544212
226	0x3cc2caad	0.023778284
227	0xbdacfd71	-0.084467776
228	0x3ce0dc16	0.027448695
229	0x3e587ad6	0.21140608
230	0x3d0a0e74	0.03370519
231	0xbd96bba6	-0.0736001
232	0xbd11e000	-0.035614014
233	0x3da41c78	0.080132425
234	0x3d4364b2	0.047703452
235	0xbe0e80dd	-0.13916345
236	0xbce921fa	-0.028458584
237	0xbe36f633	-0.17867355
238	0x3e18b383	0.14912228
239	0xbd30b187	-0.043138053
240	0x3c3b55a5	0.0114339935
241	0x3ebf2701	0.37334445
242	0xbe1a475d	-0.15066285
243	0xbd1b281f	-0.03788006
244	0x3cc8ba75	0.024502972
245	0xbd285846	-0.04109981
246	0xbd6d899f	-0.057992574
247	0xbdf6a8cb	-0.120439135
248	0x3b61f29a	0.0034476877
249	0xbcfcfdb5	-0.030882696
250	0xbe55982f	-0.20858835
251	0x3e67b505	0.22627647
252	0xbd437ae3	-0.047724616
253	0x3c978367	0.018495275
254	0x3e382fb4	0.17986947
255	0x3e0c5795	0.13705285

fc3.bias f4 [10]
0	0x3b811837	0.003939654
1	0xbf20486f	-0.62610525
2	0x3e5a1edb	0.21300833
3	0x3ed2a13a	0.4113863
4	0x3efabb67	0.48971102
5	0xbe14fcdd	-0.14549585
6	0xbd1f029c	-0.038820848
7	0xbea7d360	-0.32778454
8	0x3f1490be	0.5803336
9	0xbe1d88f8	-0.1538428
